A2/softmax_best_model.pt (torch, 246648 bytes, 1 tensors)

W f8 [3073, 10]
00000000: 8b2f 5c6e c1ed 893f d9fb 3950 75d4 83bf
00000010: 27c5 437a ce41 84bf 3be4 0893 5562 91bf
00000020: 12df c4c1 fa1f abbf b1df 99f8 210a 8fbf
00000030: 2e62 9019 66d5 983f c944 79b0 4aac 6bbf
00000040: c546 0c62 cf70 b43f 751e 459a 98cf 81bf
00000050: dbf5 83cf 62ca 82bf 4a5a 617a 598e 81bf
00000060: c03b 3b1d 1a02 983f 3c65 56f0 32a2 573f
00000070: 5615 719c e8e1 5cbf 701f 8e59 0997 a5bf
00000080: d67b 122e fa67 a33f 3e3d d66f 7894 a0bf
00000090: 3ce6 9019 2f39 b03f 8f00 e0c3 e16f a0bf
000000a0: abc5 76a8 5337 97bf c648 3b47 caee 663f
000000b0: cb9b ba85 74d0 a33f 48d7 5072 0e8b 673f
000000c0: f715 c920 d40a 923f ca57 3b14 1aee a0bf
000000d0: 6305 8753 2849 9a3f 1e2c 9403 7402 97bf
000000e0: a363 c852 7b09 a73f ed6a 5ba9 6fe0 abbf
000000f0: 591a 270d 260a 84bf 80b6 7600 4cb8 4cbf
00000100: eda5 3bd6 7490 963f 507f fbe5 ff8d 77bf
00000110: 7cd6 fa16 e030 923f a8e3 515f 811f 6f3f
00000120: 6802 e38a d32b 683f 0134 8b62 8097 9abf
00000130: 036f 9714 8a70 aa3f bb64 c5d5 7493 acbf
00000140: dca1 f892 0492 7a3f 1ac8 1651 cde1 8b3f
00000150: 28c9 d5bd ce42 743f 9a9d eac7 c312 8cbf
00000160: a42c 7f0a 7910 a23f 6cae 6a2e ab14 903f
00000170: bc52 6a27 81e1 8bbf 5752 cc54 fc68 a0bf
00000180: 819b b146 55a4 a33f cc28 bc4e f12b acbf
00000190: 89f4 3af4 eedf 833f 4fce e300 802b 82bf
000001a0: d755 7d41 156f 8f3f 9f5c 7685 fbc2 8dbf
000001b0: 0bbd a5b0 ba3d 8b3f 7c3d 8c90 130f 733f
000001c0: 8d17 cc58 59e0 713f 2518 9e9b 22c1 8a3f
000001d0: fa3d 949b a59c 9e3f 9dd6 ea33 2722 b1bf
000001e0: 35a2 ea66 f697 60bf c42f d355 83ec 78bf
000001f0: 906e a9d4 2f93 973f 1e40 b353 c34f 66bf
00000200: aa6b 5d0a 88aa 763f e25d ec91 831f 8a3f
00000210: 5f0f 9422 c6e8 5e3f 11c2 4e85 68eb 5dbf
00000220: 651b 8187 7443 9d3f 5d0c b079 a644 aebf
00000230: b8d1 dc5e 4565 8cbf e816 4762 91c9 6abf
00000240: 4431 0555 5b46 9b3f 239d d664 c8aa a03f
00000250: fd45 adaa e89c 793f 256f 43e2 5e0d 47bf
00000260: f53a a631 4c29 713f 21b2 0d90 cba5 a1bf
00000270: 11c7 4b24 e910 a33f b4aa 9eb6 baef abbf
00000280: 88b1 2812 bb8f 91bf a7e2 f611 d85d 873f
00000290: 275e 0c52 48a1 6f3f 5cfa a032 dde1 923f
000002a0: 817e f291 ade4 953f c865 bd5e 11c7 9dbf
000002b0: 6507 3848 bb3d a93f bcb2 c9ef 953a a8bf
000002c0: 3e8a 4279 2f36 973f 396d 3b1c db26 a1bf
000002d0: 51a6 8b9a ab89 97bf edff 8bd0 4bd2 923f
000002e0: f0c8 718d 73a0 29bf f71e ac26 7e7e 8c3f
000002f0: 2e80 5123 3dad a23f 4fbe 6e2e b3b5 54bf
00000300: b805 344a 226c 9f3f 07b1 f934 6304 a5bf
00000310: 13cd 8916 ec39 8a3f 6f17 a6ed 32f2 a7bf
00000320: c1b4 35d8 24bd 94bf 44db 8dd9 93c0 71bf
00000330: e7d0 6219 5b31 49bf fcf3 74b0 81c0 873f
00000340: 4f47 d919 37db a03f 10f3 2654 6eec 973f
00000350: 8d44 9729 f022 943f 5915 176f 0817 a5bf
00000360: a4e3 d938 9974 933f 6b73 d54d af7a a4bf
00000370: 0998 a4b2 8dfa 64bf 7cf8 3a97 2c8f 483f
00000380: 9b4d 4c23 f7f2 733f 77ed 837c fa48 a03f
00000390: 2d08 1ead baba 863f 37af 16fc 544e 903f
000003a0: 13e3 f958 f97e 7ebf 2d12 cf1f 4727 97bf
000003b0: 13af 1189 984d 773f 56c5 5f7f 5c36 a3bf
000003c0: 781c ff72 2cee 84bf ce06 1510 5b69 ae3f
000003d0: e773 6915 47db 80bf fb1c 70b1 e1aa 983f
000003e0: 7189 ff46 246e 743f c86f 5c91 3ebb 4dbf
000003f0: ae32 609f f7a0 84bf 720c 5bf8 8321 97bf
00000400: 3c4b 08d3 8bca 82bf 99a8 9556 caee 9bbf
00000410: 5562 8e0d 6935 7fbf e3c2 dc05 f1a3 a33f
00000420: ec5c a083 e29d 823f 26ae b947 52b6 8e3f
00000430: f472 149f 1273 793f 7a6f a057 0208 86bf
00000440: 49c3 eaa3 b191 993f 0f9c 012f fb84 a9bf
00000450: d7b7 da48 c403 69bf 79d0 0f20 69e4 96bf
00000460: 2548 8066 cfa5 89bf 9331 dc2a 7184 8c3f
00000470: ad1f 165c 845e 993f 8c05 628b b8ce 853f
00000480: de8d 4543 d5ef 963f 5c0e 2805 eef7 8ebf
00000490: 48d1 a9ce 749c 733f e84b c5d0 4b4c a8bf
000004a0: 9dbf ac56 4e38 5a3f 156f 8dac 61ce 68bf
000004b0: a6c3 4409 005c 90bf 75af 724f f4ed 863f
000004c0: 6c74 f395 52af a93f 5c86 18a9 1c92 933f
000004d0: ae0e 36b6 eb7b 993f bf7e 91be 2f54 9fbf
000004e0: 77dd 7414 bbc7 99bf ead1 40db c439 a4bf
000004f0: 41db da95 c9af 903f 114c a9b0 f94f 85bf
00000500: 3ffe 8730 7963 8fbf 04f4 87cd ee0a 8a3f
00000510: 621e 5465 58d9 9f3f a83e 7374 c18d 843f
00000520: 1e0c 0f97 ed28 9b3f 9b2c 1208 88fd a0bf
00000530: 0858 5c92 1035 91bf 6f79 fae2 b7a1 a0bf
00000540: e0cd 1d58 79e6 963f 3869 211c 3d39 74bf
00000550: 7d5d 158f 554d 81bf 308e f953 6849 723f
00000560: 04af 6456 adab 7e3f b6fe 544d 39eb 68bf
00000570: f4c7 61f1 a6b8 9b3f 4d3a 900c 5e6f 8dbf
00000580: 1136 d2bf 52cf 82bf 4955 1d0a 1503 9cbf
00000590: d84e 9f67 7b38 853f e2e3 fef3 4aa7 8a3f
000005a0: 7c83 a440 eddb 91bf 13a5 cd54 7d11 4abf
000005b0: 2c82 a5eb e2fc 9ebf 13a9 e66c 4d4f a23f
000005c0: 22f6 5078 2640 a03f 3404 e49e 1a2b 94bf
000005d0: d202 ef90 e101 903f 84bf 6762 cf41 9abf
000005e0: 5438 6573 91ba 4c3f cbd5 24d0 9b1b 843f
000005f0: 74e3 e226 24d6 9cbf 33fe 9975 5ce6 803f
00000600: 6ae2 d9b2 c611 97bf 2580 fba5 1c47 9c3f
00000610: 37d0 6e88 86d7 a33f 867f 9b18 5a2b 70bf
00000620: b2e9 ae14 5ffd 803f a4a8 f4a4 c853 8fbf
00000630: d449 21ca 3cf3 67bf b766 8c95 b798 84bf
00000640: 88aa 8be7 c348 92bf f8eb bc18 3603 983f
00000650: ea56 ee80 e409 70bf 2c14 5b07 b9a0 8f3f
00000660: ad25 58a0 e0aa 993f 1ae5 d23e 937a 813f
00000670: 9a19 f3e2 8352 2fbf ccbd 5bea ffeb a3bf
00000680: 6af2 2fc1 9ebe 883f adfd 7cc5 4338 98bf
00000690: 0ad6 9241 1a95 96bf 3214 d8c1 e2fd 903f
000006a0: 1585 b4ae acd6 893f d922 95b1 6988 683f
000006b0: 4694 c058 e8de 923f c133 9c9a 5028 9d3f
000006c0: ce86 90fb 2e1f 90bf 8e75 47d4 688f a1bf
000006d0: 0248 0ec2 c678 9c3f 34aa 807f 3dd3 a1bf
000006e0: c41a 2c7d b064 90bf 928c 8e5a 0d13 7b3f
000006f0: 8bcc 0dca dbf1 8d3f 1e0f 8de5 afe2 963f
00000700: cd9a 6e6b f499 993f b89b 84db d854 913f
00000710: effa fd6f 02fd 96bf 2d0d f2b6 b0aa 9cbf
00000720: 1898 6241 bb5e 943f 60da dd04 70f0 a3bf
00000730: 2bc6 3531 953e 8dbf abf1 4bd7 ee79 a03f
00000740: 06b8 320f 6192 773f e657 eb75 0f27 b03f
00000750: c753 93d8 2c9f 6e3f 8f02 fee6 90f9 733f
00000760: f175 6c76 25d4 8ebf 78bb 4444 953f 94bf
00000770: c609 21f0 d08b 8f3f 558b 0534 0e71 b3bf
00000780: 10a4 c99d e1ac 93bf b44a 4f07 55a2 963f
00000790: 7960 edc5 6f74 8e3f d4ff 26c8 9d05 af3f
000007a0: 3af6 5ad2 3885 88bf 498e 1f28 a4e4 803f
000007b0: 927e a29d 2160 81bf 6355 defd 717b 66bf
000007c0: 3f14 5d45 27e9 913f 63e6 2fe0 01b5 b4bf
000007d0: 6bf0 77f8 a09d 98bf f5a6 5ada d3bf 743f
000007e0: 587a 4988 9382 063f e927 2230 55a1 ac3f
000007f0: f8b3 c6f7 3362 8f3f 92b3 9933 dc8e 7ebf
0.012660514049933421 -0.00968257571298452 -0.009891141039107666 -0.01697667798928058 -0.05297835936874952 -0.015156045340731202 0.02425155192404043 -0.003378053548467184
0.07984634536503694 -0.008696739395090728 -0.009175083120221686 -0.008572291419267537 0.023445518526212572 0.0014424798440358507 -0.0017628451912668672 -0.04216794222071385
0.03790265858082591 -0.03238273968883697 0.06337255834741823 -0.03210359111835814 -0.022671992451881156 0.0027994108912504393 0.03869976169999453 0.0028739244612791294
0.017619432927196112 -0.033066573114112055 0.025669698808774465 -0.022470295637543207 0.04499421487361779 -0.05444668714854637 -0.009784981991186091 -0.000876462087878685
0.02203543241095034 -0.0057506557493239435 0.01776456966645988 0.0037992026141719544 0.002950585526463368 -0.025968557371744087 0.051639857305159985 -0.05581250295171843
0.006486909740069238 0.013614276921405422 0.004946525177148588 -0.013707665956941995 0.03528192761549434 0.015703844745685577 -0.01361370946441675 -0.03205097708829346
0.038363137130366994 -0.05502275549049926 0.009704462841336319 -0.008872032191425875 0.015348592816432678 -0.014532055864761083 0.013301332965709031 0.004653049873709288
0.00436434651488139 0.013063688634940071 0.029894435520928277 -0.06692738549721829 -0.002025586370411748 -0.006084931400618335 0.02302241073117145 -0.0027235808353012333
0.00553372517409915 0.012755420580602587 0.0018865523255166756 -0.001826145239857028 0.02857763363888512 -0.059117510179952794 -0.013865034062839551 -0.0032699431924097973
0.026635577263094193 0.032552969273917286 0.006253155569383659 -0.0007034982013709208 0.004189775116528284 -0.03446804173913543 0.03723839347902758 -0.054563364784674745
-0.017149851783118147 0.011409462021093232 0.0038610851774014856 0.018439727988374663 0.021380149872696656 -0.02907969609018382 0.04929909950807491 -0.0473219733438319
0.022667638565176278 -0.03349957198744353 -0.022986108119687213 0.018380341151896507 -0.00019551668694679043 0.013913140826403032 0.03647795730717039 -0.0012640237634790224
0.03068593576336351 -0.04104909917518467 0.012805790365041625 -0.046769706258642844 -0.020252776810072207 -0.004334046877253087 -0.0007688231296669985 0.011597645947967188
0.032922479539264964 0.023362850080718423 0.01966452840662618 -0.041191352425395684 0.018999475569646443 -0.03999851060027634 -0.0025608794723153178 0.0007494895675888148
0.004870381719928397 0.031806781482340556 0.011098345192071058 0.015923812757747426 -0.0074453106059244765 -0.02261077052732412 0.005689235536106246 -0.03752411894664458
-0.010219905146995098 0.05939755030932546 -0.008230738964977348 0.02408936162467244 0.004987851818415088 -0.0009073310381810746 -0.010072645713102926 -0.022588789018083984
-0.00917538869638223 -0.027278100523667168 -0.007619295466519367 0.0383601493507564 0.009090203897399417 0.014996187986262188 0.0062132575415290055 -0.010757463740496343
0.024969840650274553 -0.0498426909332964 -0.00305355393250915 -0.02235569246472877 -0.012523289027772286 0.013924488182532701 0.024774616356381497 0.010648195031765416
0.022399265509546733 -0.015121326000559758 0.004787880209381541 -0.04745709346266108 0.0016003384614115886 -0.0030280978866538224 -0.01597595268794163 0.011196049379883036
0.050165730289997906 0.019112060375965675 0.024886782642637932 -0.03059458351742594 -0.02517597496372789 -0.03950324226790143 0.016295575877588012 -0.010406447128081838
-0.015326449197345158 0.012716165206251524 0.03110254400692581 0.010036002508427913 0.026523315758606107 -0.03318429087183824 -0.016803988392972286 -0.03248381276829348
0.022363563540649056 -0.004937399588096185 -0.008448284558353997 0.0044645381272832435 0.0074879427905150155 -0.003041850965615679 0.0270715794399123 -0.01437257266846106
-0.009184500197330999 -0.02735550760492814 0.01036163721065668 0.013014398165852318 -0.01744051653907118 -0.000795541951089581 -0.030261560089799897 0.03576127962453959
0.03173942774490636 -0.01969567866126827 0.015632175894782226 -0.02564167059057311 0.0008767328461460979 0.009818284310862865 -0.028160633920126313 0.008251879061616929
-0.022528748193936833 0.02761502039982146 0.03875370421829454 -0.003947593629817342 0.00829576761122017 -0.015296523603485497 -0.0029236018463418643 -0.010056909800869247
-0.017855702407283874 0.023449750194441038 -0.003915684311228887 0.015443273102741704 0.025065908228531764 0.008534574846964339 -0.000238970374516434 -0.038909909589957076
0.012082329054458902 -0.023652132920003833 -0.022053156139653786 0.016593497353842142 0.012616490441873776 0.0029947342233394955 0.018428450028427322 0.02847410148301655
-0.01574395571163372 -0.03429725257204118 0.027804475397324786 -0.034814760031015274 -0.016009099616918446 0.006609966433560948 0.014621464828201055 0.022349117646867638
0.025001353318340237 0.016925228498759742 -0.022449529729324288 -0.027994881788356785 0.019892621866027665 -0.038943768114155786 -0.014279523433944416 0.032180274754839054
0.005754832399516024 0.06309601429833797 0.003738010015335 0.004876676582967434 -0.015053074528220885 -0.019773800174501116 0.015403396919400413 -0.0759438397413253
-0.019214177375406705 0.022103622981215224 0.014870522716293732 0.060589724238070325 -0.011972850722823048 0.008248598551239843 -0.008484137175684556 -0.002744410171497223
0.017490972145669522 -0.0808869526225862 -0.02403880611926505 0.005065753508157069 4.293453915659291e-05 0.055918371320401956 0.015324026106862107 -0.0074604608176799415
