A2/svm_best_model.pt (torch, 246648 bytes, 1 tensors)

W f8 [3073, 10]
00000000: cfd0 9292 aba5 7e3f dc00 8f74 2930 603f
00000010: c083 4481 e369 373f 789b 985d e760 84bf
00000020: 7ac4 27d7 9ea8 97bf 3da0 2875 ab3c 8bbf
00000030: 6255 0780 a5e0 803f 668a 7d08 bc00 61bf
00000040: 134b 0db2 99cd 9d3f 054f adea c1c2 543f
00000050: a5b2 21f6 040a 46bf 25d2 8a19 4030 733f
00000060: afe9 18d7 7f4c 8b3f f175 ece5 9b1d 4c3f
00000070: 3387 3a05 3bb1 82bf 6494 326e cab5 9dbf
00000080: aa56 e0fc 9c4c 893f e438 9cd7 d355 85bf
00000090: e297 3daa bbf9 973f 7066 930e ec27 76bf
000000a0: b2a6 bfdf c2a5 7fbf 176f 4763 1957 743f
000000b0: f95c b4f7 6423 963f bae9 668c 5e90 663f
000000c0: cf45 e702 24dd 58bf eebf 1966 1ade 97bf
000000d0: ac14 92da 5b03 893f 32fc e13a 8f62 85bf
000000e0: f1b4 2844 3af5 903f 934d fa0f 7cf6 8ebf
000000f0: 9caf a985 7dc8 71bf b81e 4af8 59b0 753f
00000100: 972c 4099 0f42 903f 5ee6 3c37 16e1 18bf
00000110: 0043 b6b4 cf16 483f 19ec b423 f6cb 82bf
00000120: 2436 2b47 b5c6 643f 3efa cbe8 301d 8abf
00000130: 3a6a aa74 aae5 933f de15 e754 b6ee 91bf
00000140: 48d1 f3f9 000f 663f 49b9 1918 77f9 813f
00000150: 4b01 ad00 237e 803f 791f 7755 8821 62bf
00000160: cde3 32d0 c9de 753f 5763 80f3 4f95 79bf
00000170: d23a 6b35 3570 6bbf d793 594c fa50 8ebf
00000180: 6da7 4600 b3d6 923f cf71 c0d9 a30b 91bf
00000190: d364 e225 9607 793f b2c3 1b05 45bc 54bf
000001a0: 1ca5 b7e7 d11e 853f 8014 aaaa 7444 63bf
000001b0: 2aa4 6059 05ec 333f 1928 2bcd 2d6a 7ebf
000001c0: 721e 89d2 129b 683f bbeb e593 d850 62bf
000001d0: cc6b 3e13 d81e 923f 14b2 1df7 a8ba 98bf
000001e0: dc44 0bc2 de4c 463f d3ce 3c42 4b10 5e3f
000001f0: e5d2 984b 3d09 893f fdc9 d6c5 7009 733f
00000200: 1217 df8b fc40 25bf e1ea 2b44 0f39 6fbf
00000210: b841 00e3 1aa7 24bf f90b 2736 4a4b 79bf
00000220: 839c c50e e134 8f3f 31e6 1ae6 99e7 98bf
00000230: 7ff1 f2b2 c942 76bf c49c 15fc f546 6b3f
00000240: dd93 d107 88dd 8a3f bde1 0788 fcce 933f
00000250: 50e4 8363 fb62 283f de61 3c91 6f94 7dbf
00000260: 2a89 95c7 4c13 593f 2ccb 6caf 6264 93bf
00000270: a0d7 5c58 f27d 913f 1718 1829 5c8c 97bf
00000280: 7668 ee9a d0fa 72bf cdfa a2eb 84f7 803f
00000290: 99ca 6a94 ac6c 803f ccf6 f76d d8fc 8b3f
000002a0: 3f54 24a1 614e 703f 0507 a239 9d4b 8bbf
000002b0: 362d 73a3 c7bf 923f 6df7 e528 900f 9bbf
000002c0: 16a7 dcd8 d9aa 873f a6ea 221d a6e3 93bf
000002d0: 55d6 4d48 c687 79bf 6c03 4bf1 b51b 843f
000002e0: 7b6c ad88 4fe0 683f 84a1 52a8 7346 883f
000002f0: 12d2 3fff 2f7e 843f cc79 c4fb 94da 62bf
00000300: 7df1 bf64 b61c 903f f601 2560 e848 97bf
00000310: a4c5 8468 3ab5 803f 5368 ed92 b4fd 9bbf
00000320: 7ac5 9559 eb25 79bf 2566 0e11 3605 713f
00000330: 93e1 616c 7c16 303f 83bc 34ea ead4 893f
00000340: 97e7 6d31 dca0 833f 8a4c 2443 f1c0 853f
00000350: 0716 3395 4fa3 853f b660 2d10 3ff1 97bf
00000360: f654 182a 073e 803f 4f6b 021d 92d2 9abf
00000370: 12a4 e7f5 ef0e 29bf 6f59 bd21 e416 6f3f
00000380: f19d faa6 5e98 623f 9ac9 9092 3585 963f
00000390: bf31 af71 5d4b 5b3f 813a 9c7b 5e6d 803f
000003a0: ab2f 2121 b8f8 45bf f150 1806 e0ad 90bf
000003b0: 531b e1fb d9a0 6e3f 7247 09ef a6eb 98bf
000003c0: 6b9d 147a dcf3 70bf fdb0 522b caae 993f
000003d0: 20c5 e824 ac26 70bf 0615 58bf 744f 943f
000003e0: a3de d5e0 334b 69bf 1eee db7d be73 5bbf
000003f0: 3a94 7c22 3ae2 45bf baf5 e82b 3734 8fbf
00000400: 6639 9207 3706 3e3f be7d 9c37 6805 91bf
00000410: 7e58 d2ed 3676 63bf b871 4204 8912 973f
00000420: 47e2 1aeb e2c6 553f f380 8605 0457 8b3f
00000430: 8b7a 8b3d 7083 41bf 2b19 cf57 17a6 82bf
00000440: 4140 a431 cbef 883f efdf 5761 2368 9abf
00000450: d1de 6866 73c0 6d3f a26a 2094 3828 8fbf
00000460: 3bd2 0fea bb81 74bf cf99 d49a 1eba 8f3f
00000470: f246 d365 1d84 813f 046d baf1 56bb 8a3f
00000480: 81b8 5e77 7ae4 823f e53b f764 00f6 87bf
00000490: 27da aa01 6502 563f 08de 6063 e066 9abf
000004a0: e40d d57e c9da 6e3f 7d6d 8db0 ce4d 82bf
000004b0: 6960 7734 bcf5 7ebf 999f d127 2929 853f
000004c0: 50da cf87 fbf9 933f 12e3 c3b1 0b47 933f
000004d0: 0f49 f486 7df0 8a3f abf1 ef43 80ec 8dbf
000004e0: 8015 c459 bb0a 87bf cbb2 2c01 7f44 99bf
000004f0: 82f4 d4af eda0 7c3f 6624 8184 14f1 85bf
00000500: 921d 4a2e b762 84bf 17c6 f584 7e94 883f
00000510: 96ab bc2f 1213 843f 9588 240a 7e3c 8b3f
00000520: 5193 7819 2c7a 883f 4286 4699 327d 89bf
00000530: 7298 0b63 394e 74bf 9555 101c 05c7 96bf
00000540: 8416 f10d a438 853f 7d06 dcec a9fd 7fbf
00000550: 9e52 d8a9 d541 83bf fe87 dbab 9c3b 793f
00000560: a09f b4c4 d6e9 513f 330e 468b 1b17 703f
00000570: 7176 82f4 2e51 883f e488 4600 8f08 72bf
00000580: 7ea3 4dbc 510b 603f c447 bd8f 66b5 91bf
00000590: c05c 17d7 26b2 783f 38c9 11f1 7fdb 0b3f
000005a0: 6987 3cf8 b63b 88bf 57db b60b ab71 563f
000005b0: 5767 566b ee6f 88bf d33f 0128 fd51 963f
000005c0: 1dae 81b9 5111 863f 6f6f 434e a8fc 5bbf
000005d0: 79ab 31cd 0591 863f 6c23 0c90 f52b 8ebf
000005e0: 0c3c a38c 71ae 38bf 5597 8fba 37f7 71bf
000005f0: 1f49 c90a 9596 8bbf 8d98 f56b 24e0 793f
00000600: f65f 2c4d 0a64 87bf 304d f07c 4a1e 953f
00000610: 1827 2cf3 54b6 8b3f 08a6 5f9b b775 4f3f
00000620: 523f 537e b182 773f 0f52 e546 14d5 82bf
00000630: 8a70 f0b9 57a5 60bf 0a24 a2ce 68a1 86bf
00000640: c836 627a 146d 80bf 479f 497c 395f 863f
00000650: 3a97 2f92 7b69 77bf ed36 27c7 8887 893f
00000660: b8a3 d7dc bd7b 7a3f ee8f e3c0 bd48 763f
00000670: b14e 1b61 1bc7 683f 4072 6adb 7b2c 90bf
00000680: 52cc 63ef a387 793f 96e6 7d00 00c2 8ebf
00000690: 6af2 5106 23d9 8bbf b221 19c6 db08 883f
000006a0: 3a17 5375 c316 4c3f c685 49d0 fe1d 843f
000006b0: 5367 e823 b842 633f bad2 92b4 8b98 8b3f
000006c0: aef0 c8ac 3466 72bf ddbd 0660 d234 8ebf
000006d0: cf23 dffd cbf4 8d3f 33bd 6d9a ed81 94bf
000006e0: 3832 27a6 4e13 8bbf ede1 e2ed 24c1 833f
000006f0: 3e88 35ba baed 683f f35f 03fe e567 8a3f
00000700: 8c6e 2e67 45de 6c3f 1b76 b6bb a8ea 813f
00000710: 1d3c 20e8 eea5 76bf e34a d984 3b51 86bf
00000720: a18b da35 ddce 883f 98a5 e305 61ce 94bf
00000730: 7426 9508 344a 85bf c01e baa3 8cfd 853f
00000740: bc9f 39dd 7ed8 423f 2e05 5324 9bc9 9d3f
00000750: 5237 8529 657a 60bf 9a07 f61c 5c15 6b3f
00000760: 41a9 89a3 194c 7dbf eb1c 19df 55c7 75bf
00000770: f358 cdc2 c1d9 863f 0871 c2dc b4b5 9ebf
00000780: 7614 3e88 9475 83bf 1f26 9fac c65a 763f
00000790: 456b 7bec c9bc 723f 8275 7136 eeec 9f3f
000007a0: 5857 b514 be11 80bf 48b9 912b 2d93 613f
000007b0: 8712 5cbf a528 75bf dae4 9e5a 2d7b 14bf
000007c0: 0e8b e0df bda4 883f 13ea 80c6 85ca a0bf
000007d0: b11f 3d03 317d 88bf ef6d e6b0 a87f 683f
000007e0: 8bf5 bff5 791c 4dbf 1699 5640 f4bc 9e3f
000007f0: f29f 49e1 d7d3 4bbf a655 ec97 7f24 71bf
0.0074822141697731956 0.0019760904001203516 0.0003572636062632549 -0.009950454276873563 -0.023104173547782804 -0.013299312127017621 0.008240979165672516 -0.0020755455515637953
0.029104615681101963 0.001267136928352509 -0.0006725811220014878 0.0046846870324555355 0.013329504729985368 0.0008580218526252332 -0.00912710294443606 -0.029013789153982464
0.012353159396336483 -0.010417609231378973 0.023413593545590923 -0.005409166428955822 -0.007726441599496136 0.0049658767424849625 0.021619393938718343 0.002754387535984307
-0.0015175677941566717 -0.023308193666196013 0.012213437659975256 -0.010441893562754687 0.016560469064803966 -0.01511856960067951 -0.004341593094618814 0.005295134968612274
0.015877002457312796 -9.490678877179792e-05 0.0007351411999697299 -0.009178088154490326 0.0025361576639173645 -0.012750990013498439 0.019430793162067618 -0.017512177402542288
0.002692701251016203 0.008776598380077731 0.008053086717723664 -0.0022132551928030733 0.005339420636283299 -0.006245910939491526 -0.003349403308085066 -0.014802890257849128
0.01839713753876231 -0.01664596573401572 0.006110750690049477 -0.0012655900977131926 0.010312690624191982 -0.0023519781728418843 0.00030398493379607766 -0.007425478851198286
0.003003632318982424 -0.002235816005108996 0.01769578568892509 -0.024149551470531064 0.0006805503545256569 0.0018349394749294548 0.012224654073273064 0.004647675055297726
-0.00016215403405633232 -0.0038113878412081447 -0.00015756800849021728 -0.006175317658235529 0.015237577689459996 -0.02432098833990021 -0.005434787642283444 0.0033297352207913595
0.013117850054365771 0.019344278147373595 0.00018605536184404742 -0.007221637544511298 0.0015304803658514146 -0.018937627751436967 0.017082010882596088 -0.022996368416009796
-0.004633726944030516 0.008284605446872284 0.008019779471714105 0.013665858131385454 0.0039810002947620595 -0.013327816315953376 0.018309707022848808 -0.026426556106791056
0.011556341105080341 -0.019423099068016335 -0.00623300031735637 0.009818478990725153 0.0030366471668635243 0.011853126119903086 0.010006308533754758 -0.002301493628819906
0.01573452939918373 -0.022739058368871988 0.008158165278106484 -0.02733499666951673 -0.006139678321561143 0.004155360410459196 0.00024548089675804316 0.012613139412307689
0.009584160097563727 0.010621914731507216 0.010565397015294143 -0.023381219255811124 0.007930808994425647 -0.026193888683887775 -0.00019118003088117224 0.003795095033562727
0.002269921176622829 0.02199252802911076 0.0016659176387633227 0.008021104953084947 -0.0006705187863729108 -0.01628828084183537 0.0037388093469731625 -0.02433644136392083
-0.00413881419925786 0.025080832380511165 -0.003943130911055165 0.019834350756373652 -0.0030876172301608925 -0.0016755447645086029 -0.0006678375111489672 -0.015236311938788261
0.000458134112315009 -0.01662218894409561 -0.0023757050353863654 0.022531643757803116 0.0013291564941210353 0.013349563044187529 -0.0005344675110697401 -0.009105856291978206
0.012176120235864231 -0.025787880722390296 0.0036318067461954336 -0.015213434238878169 -0.005006536522149714 0.015491713619280837 0.008552770299874866 0.013052634479484578
0.009224850433238398 -0.011699679452162168 0.0013433443443041733 -0.02578306776578468 0.0037664351899893023 -0.008937468302682156 -0.007558570075581008 0.010332414176630599
0.019508295215894755 0.018825705265928035 0.01315401142213493 -0.014611246178895273 -0.011250938107432829 -0.02467535442990502 0.006989410843115997 -0.010713730138507137
-0.009953909969467021 0.012001980240458327 0.009802000123803539 0.013298973736315648 0.011951775100052993 -0.01244582681903517 -0.004957412879525435 -0.02224357589519384
0.010361940074413718 -0.007810271997870208 -0.00940291332794035 0.006160366055810938 0.0010933492038222928 0.003928287118813811 0.01187359508213179 -0.004402693365053365
0.0019585224530839765 -0.017293550990252773 0.006029273719341421 5.313381382955829e-05 -0.011832646799635875 0.001369874035715054 -0.011932242060357074 0.021797137800888166
0.010775221322737722 -0.0017081874475967892 0.011018796276592845 -0.014732283075788742 -0.00037660858346283475 -0.004386155786937203 -0.013470806495352648 0.006317274353341185
-0.011421280365127 0.020623363376285286 0.0135313641271924 0.0009600779073910002 0.005739873250789023 -0.00919547883373986 -0.002031966534117362 -0.011050051504087239
-0.008020553574421455 0.010923813920456061 -0.00571583051621421 0.012465542390511309 0.006465665484463416 0.005440465187550798 0.0030246290924454623 -0.015794692294195167
0.006232872363614099 -0.01501846314907888 -0.013597749357580475 0.011735646231628791 0.0008572058092332975 0.009822836619778463 0.002351150177912689 0.013474551628271814
-0.004492002259720502 -0.014749187045565765 0.014627069172904598 -0.02002688651140012 -0.013220419355001942 0.009645737180435677 0.0030430457133414903 0.01289348298489299
0.0035239558723796967 0.008748357990778157 -0.005529340009174735 -0.010897126189921951 0.012113311964020048 -0.02031852339215376 -0.010395437728806224 0.010737513300468904
0.0005751246885212706 0.02908937844472808 -0.002011487562561345 0.0033060835918953925 -0.007152652885091649 -0.0053170542101448155 0.01115752578486393 -0.029990030263989303
-0.00950161019114602 0.005457664557931645 0.004574574246101919 0.03117725570006292 -0.007846341139763943 0.0021453745107954704 -0.005165717555205013 -7.812942808884134e-05
0.012032969851195865 -0.032795124513047245 -0.011957533751811274 0.002990560030594606 -0.0008884044177645418 0.0300176777142492 -0.0008492282964427374 -0.004185198223031794
