A3/overfit_deepconvnet.pth (torch, 111111 bytes, 10 tensors)

W1 f4 [8, 3, 3, 3]
-0.18531705 -0.11532564 -0.6007982 0.041111816 -0.010017401 -0.10466932 -0.018903749 0.008036832
-0.12732618 -0.10555521 -0.3790169 0.36590675 0.0430776 -0.029624745 0.27442092 0.32296818
0.05437626 0.36155 0.21393046 0.119670145 -0.22404362 -0.32785195 -0.15446278 -0.24442185
0.09332055 0.081040956 0.52166724 0.25971735 0.11211108 -0.03794857 0.35103273 0.014109928
-0.05944116 -0.036269967 -0.2095448 -0.11140545 -0.024994833 0.14691651 0.25127497 0.37353855
0.08187527 0.1887683 0.3611371 0.13157225 0.019837767 0.1798797 -0.29937902 -0.14647034
-0.09066297 -0.035604227 -0.0041138744 -0.10556554 -0.004332761 -0.38466504 0.0696686 0.13010813
-0.059906177 -0.015622121 -0.061112057 0.27491733 0.17704569 0.11176606 0.19469118 -0.21226552
-0.009175087 -0.19546035 0.18029325 -0.23697706 -0.17761807 0.06468822 0.15149371 -0.057348453
-0.10110878 -0.07687057 0.17104831 -0.2825286 0.11107665 0.052761175 0.13789047 -0.05700677
-0.011150598 0.13323294 -0.6212863 0.07242651 -0.039971817 0.2780278 -0.022207767 0.057230044
0.09150933 -0.028646411 0.17669572 0.34530228 0.04673948 0.080792956 0.24581535 -0.20084879
0.02290698 -0.24709997 -0.1561473 -0.100988835 0.03437851 0.037530612 0.09029356 0.1930426
-0.32488868 0.13872221 0.19861399 -0.14462239 0.017453423 -0.17864826 -0.42245308 -0.12480003
0.30129245 0.046952795 0.14412251 -0.31811327 -0.13221319 -0.3487923 0.25181758 -0.01166193
0.38777924 -0.22461194 0.31396365 -0.0647766 -0.19059913 -0.08203475 -0.16412547 -0.13645299
-0.2699689 -0.20350705 -0.20564355 0.36257133 -0.33103922 0.23042412 -0.46747768 -0.21547888
-0.0014610394 -0.20629446 -0.05937217 -0.1257587 0.032945 -0.08235751 -0.004668225 -0.2388431
-0.19295867 -0.03156301 -0.13337374 0.25195023 -0.18386301 -0.12002642 -0.15596122 -0.09793636
-0.061331503 -0.33201346 -0.122031115 -0.21900204 0.20465529 0.21219975 0.07505346 -0.19524506
0.0116473725 -0.17578666 -0.17443456 0.26068014 0.13081086 -0.046776526 -0.18290092 0.32205778
-0.06284727 0.20692082 0.08789277 0.07251419 -0.35799503 0.19012088 -0.18991879 0.44659233
0.14049983 -0.037742022 0.2524809 0.18659416 -0.20466597 0.50047016 -0.10427497 0.1318969
0.012342928 0.26746663 -0.08503122 0.15516134 0.20561562 0.14144185 -0.050962687 0.019424498
0.049302537 -0.19083819 -0.08266339 -0.020701976 0.14415956 0.12923518 -0.16075589 0.00752342
0.04091325 -0.21216403 -0.13943969 0.05826101 -0.061704446 -0.3562476 0.008606948 0.14885527
0.18924278 0.39045435 0.10645305 0.18097204 -0.12682721 0.4148282 0.20304902 -0.15352544
00000000: c1c3 3dbe d92f ecbd e9cd 19bf dd64 283d
00000010: 0620 24bc de5c d6bd 09dc 9abc ebac 033c
00000020: cb61 02be 542d d8bd 810e c2be 2158 bb3e
00000030: 2372 303d 98af f2bc e680 8c3e 165c a53e
00000040: a4b9 5e3d 151d b93e 9610 5b3e 9f15 f53d
00000050: b16b 65be 36dc a7be 7e2b 1ebe b949 7abe
00000060: d81e bf3d cdf8 a53d fc8b 053f acf9 843e
00000070: 7e9a e53d f66f 1bbd 90ba b33e 542d 673c
00000080: 9378 73bd d18f 14bd e992 56be 8a28 e4bd
00000090: f7c1 ccbc 4871 163e 1da7 803e 7240 bf3e
000000a0: 39ae a73d 7a4c 413e f6e6 b83e e0ba 063e
000000b0: d082 a23c 6232 383e 3548 99be 52fc 15be
000000c0: 82ad b9bd bdd5 11bd aecd 86bb bf32 d8bd
000000d0: d5f9 8dbb d1f2 c4be 69ae 8e3d 113b 053e
000000e0: 2e60 75bd edf3 7fbc a350 7abd f7c1 8c3e
000000f0: 774b 353e 9be5 e43d 205d 473e 225c 59be
00000100: 1b53 16bc c226 48be cb9e 383e 1daa 72be
00000110: 83e1 35be 427b 843d 2b21 1b3e 36e6 6abd
00000120: 1f12 cfbd 516e 9dbd 4a27 2f3e 97a7 90be
00000130: 287c e33d 1a1c 583d 2933 0d3e ee7f 69bd
00000140: ffb0 36bc 376e 083e 9e0c 1fbf 5a54 943d
00000150: 7db9 23bd a959 8e3e 10ed b5bc 0d6a 6a3d
00000160: 3e69 bb3d e1ab eabc b9ef 343e 76cb b03e
00000170: e671 3f3d c776 a53d 05b7 7b3e 4eab 4dbe
00000180: 6ba7 bb3c c607 7dbe 14e5 1fbe 3cd3 cebd
00000190: 7bd0 0c3d b3b9 193d d4eb b83d f6ac 453e
000001a0: cf57 a6be 320d 0e3e 7761 4b3e e417 14be
000001b0: 7bfa 8e3c 92ef 36be c54b d8be 2897 ffbd
000001c0: 0143 9a3e 9351 403d da94 133e bedf a2be
000001d0: e562 07be e894 b2be 3cee 803e ae11 3fbc
000001e0: 008b c63e ac00 66be d8bf a03e 98a9 84bd
000001f0: 6b2c 43be d601 a8bd 8210 28be 55ba 0bbe
00000200: 5d39 8abe 2764 50be 3994 52be f3a2 b93e
00000210: f97d a9be 4df4 6b3e 3c59 efbe 7fa6 5cbe
00000220: 5980 bfba db3e 53be 3c30 73bd e3c6 00be
00000230: 56f1 063d 0eab a8bd e9f7 98bb 4993 74be
00000240: f596 45be 3748 01bd 2093 08be 9fff 803e
00000250: 9646 3cbe 69d0 f5bd 4cb4 1fbe dc92 c8bd
00000260: be36 7bbd abfd a9be 73eb f9bd 1242 60be
00000270: 2891 513e e44a 593e a1b5 993d 52ee 47be
00000280: 9fd4 3e3c 6b01 34be f99e 32be de77 853e
00000290: 48f3 053e be98 3fbd 614a 3bbe c2e4 a43e
000002a0: 12b6 80bd 0de3 533e 2001 b43d 5282 943d
000002b0: 204b b7be 0caf 423e 127a 42be c0a7 e43e
000002c0: 30df 0f3e 6197 1abd 2d45 813e 8a12 3f3e
000002d0: f593 51be d01e 003f 1e8e d5bd fb0f 073e
000002e0: fe39 4a3c 63f1 883e d924 aebd 9de2 1e3e
000002f0: e78c 523e 22d6 103e 40be 50bd 2020 9f3c
00000300: 75f1 493d 166b 43be 6c4b a9bd 3197 a9bc
00000310: 909e 133e 3a56 043e 319d 24be 0587 f63b
00000320: a794 273d 8741 59be 47c9 0ebe 19a3 6e3d
00000330: cdbd 7cbd 1666 b6be 2804 0d3c 846d 183e
00000340: dcc8 413e a2e9 c73e 0f04 da3d bc50 393e
00000350: fede 01be 5d64 d43e 15ec 4f3e c635 1dbe

b1 f4 [8]
-0.05263487 0.001278372 -0.037815787 -0.077944934 -0.07782757 -0.040904615 -0.070951454 -0.1038416
00000000: a997 57bd 0c8f a73a bae4 1abd 98a1 9fbd
00000010: 1064 9fbd 998b 27bd ff4e 91bd e8aa d4bd

W2 f4 [16, 8, 3, 3]
-0.11738279 -0.2677241 0.029448345 -0.29419845 0.12913501 0.01833385 -0.11014499 -0.35354453
0.027898697 0.07535445 -0.33480835 -0.13034044 0.0049922746 -0.05924434 -0.21292469 -0.151593
-0.2043965 0.26972505 -0.24680199 0.24321309 0.009020774 -0.14769177 -0.00041174729 -0.08994397
-0.06878781 -0.18972549 0.1662045 -0.20115304 0.014510379 0.10792262 0.27819392 -0.06856781
-0.13356254 -0.23480009 0.4546212 -0.12821479 -0.18348062 -0.077735536 0.30741277 0.2944883
-0.20974018 -0.060787488 -0.12969257 -0.18179804 0.34036887 -0.13418937 -0.15302877 -0.045914378
-0.46601185 -0.33283916 0.25499114 -0.101783 -0.522706 0.36651027 0.07674872 -0.47382542
-0.2717243 -0.13280368 0.13159834 -0.113157436 -0.21304777 0.013404506 0.0066896626 0.00094825495
0.32993928 -0.32782045 -0.0725058 -0.082191795 -0.0046124873 -0.08067183 -0.28081012 0.102617815
-0.08737249 0.07499067 -0.3575912 -0.21404283 0.1651384 -0.4305106 -0.033648945 -0.12882337
-0.26254728 0.05573947 0.021323102 0.14747448 0.15843713 0.047165714 -0.11899477 0.020575257
-0.012803197 0.14545567 -0.05543593 -0.13368474 0.07917114 -0.045065418 0.3471436 -0.18947248
-0.24463868 0.03757476 -0.16401763 -0.06994163 0.053453423 -0.055983484 0.019119946 -0.19539961
-0.10825869 -0.061962895 0.1105195 -0.13444495 -0.21824902 -0.16132881 -0.28390935 -0.11050389
-0.20685202 -0.11385748 0.26943427 -0.23932034 0.16571072 -0.36458778 -0.033465847 0.05294968
0.08100032 -0.19650757 0.023846522 0.33135277 0.0024127718 -0.0067518177 0.36865193 -0.06172566
0.070643984 0.27642518 -0.23710161 0.2523864 -0.2954844 0.11962314 -0.0054109357 -0.12272698
0.20994419 0.1296792 -0.21502428 0.2445207 -0.26166487 0.24516134 0.4200967 0.14178781
0.17731753 -0.29042277 -0.17568368 -0.09421746 -0.21189635 0.13849275 -0.062392965 -0.40950778
-0.20774405 -0.21660008 -0.30230856 -0.061262142 0.0079328865 -0.09933648 -0.12272119 -0.16686821
-0.22999667 -0.06709157 -0.4807743 0.33406636 -0.17033875 -0.060685642 0.095784985 -0.02609043
0.05425148 -0.11306922 -0.354034 0.1545745 -0.13888621 0.10094225 0.093036905 -0.36012128
0.45916545 -0.16641824 -0.09506667 0.07188613 -0.07492859 -0.018371226 0.15411182 -0.36434764
-0.19147198 -0.0777941 -0.17580108 -0.03306879 -0.09264908 -0.089447595 -0.15216036 0.04669042
0.13000776 -0.29425278 0.08885215 -0.2079677 -0.19328246 0.011646648 0.13886325 0.043494444
0.004986904 0.23234943 -0.19648601 0.12874715 -0.028013691 -0.08105238 -0.30576977 -0.20148328
-0.035422977 0.15817255 -0.13659988 0.026040202 -0.21930505 -0.42795786 -0.38650683 -0.1643291
0.25543925 0.12056993 0.07930818 -0.071231075 -0.02136217 -0.088780195 -0.18806432 -0.0048402757
0.1961148 -0.05280852 0.088056505 0.013043154 -0.09742471 0.04422483 -0.33378616 -0.4148309
-0.33903554 -0.18114395 -0.15271825 -0.23577732 -0.3360901 0.1896286 0.13592826 -0.053210128
0.13676134 0.30024484 -0.10540393 0.27693242 -0.20512585 0.14297903 0.16618076 0.111643225
-0.23746386 -0.06976641 -0.06453192 -0.2347885 -0.19458982 -0.031964682 -0.37991905 0.029380385
00000000: 6366 f0bd 2213 89be a83d f13c 2ea1 96be
00000010: f83b 043e df30 963c b293 e1bd ca03 b5be
00000020: cf8b e43c 6f53 9a3d 006c abbe f777 05be
00000030: 3c96 a33b 31aa 72bd ee08 5abe 323b 1bbe
00000040: 514d 51be 6719 8a3e a9b9 7cbe da0c 793e
00000050: decb 133c 833c 17be c9df d7b9 8b34 b8bd
00000060: a0e0 8cbd 6647 42be 8331 2a3e 10fb 4dbe
00000070: f1bc 6d3c 8906 dd3d 6f6f 8e3e 486d 8cbd
00000080: 9ec4 08be 6f6f 70be 1cc4 e83e bd4a 03be
00000090: 58e2 3bbe cf33 9fbd 3565 9d3e 2cc7 963e
000000a0: 21c6 56be 4dfc 78bd 21ce 04be 4429 3abe
000000b0: d444 ae3e f068 09be 93b3 1cbe b710 3cbd
000000c0: 1b99 eebe e569 aabe 338e 823e 9b73 d0bd
000000d0: 0fd0 05bf 3ca7 bb3e 6f2e 9d3d 3f99 f2be
000000e0: 731f 8bbe b0fd 07be b7c1 063e 16bf e7bd
000000f0: 3229 5abe 939e 5b3c f534 db3b 5094 783a
00000100: cded a83e 15d8 a7be ec7d 94bd 2c54 a8bd
00000110: 5924 97bb 4637 a5bd 58c6 8fbe 4a29 d23d
00000120: 59f0 b2bd b594 993d 3216 b7be 0b2e 5bbe
00000130: 0a1a 293e e36b dcbe 7ad3 09bd 46ea 03be
00000140: 996c 86be 124f 643d c9ad ae3c 8d03 173e
00000150: 583d 223e d630 413d 88b3 f3bd 718d a83c
00000160: 80c4 51bc 55f2 143e c910 63bd a7e4 08be
00000170: 7b24 a23d 8496 38bd cebc b13e 1305 42be
00000180: 9082 7abe fee7 193d 3df4 27be 8f3d 8fbd
00000190: faf1 5a3d f04e 65bd 6fa1 9c3c d616 48be
000001a0: bbb6 ddbd cecc 7dbd 0c58 e23d f0ab 09be
000001b0: ac7c 5fbe 6133 25be 915c 91be dd4f e2bd
000001c0: 04d1 53be 1c2e e9bd 4af3 893e 6410 75be
000001d0: 12b0 293e 40ab babe 7c13 09bd c3e1 583d
000001e0: 7fe3 a53d 4839 49be c859 c33c 12a7 a93e
000001f0: 981f 1e3b 5a3e ddbb f2bf bc3e 0cd4 7cbd
00000200: cbad 903d 9a87 8d3e c4ca 72be ca38 813e
00000210: bb49 97be fafc f43d 384e b1bb 4858 fbbd
00000220: 9cfb 563e a0ca 043e 532f 5cbe a263 7a3e
00000230: f0f8 85be 930b 7b3e ea16 d73e d330 113e
00000240: ba92 353e 4bb2 94be 6ce6 33be 15f5 c0bd
00000250: 5bfb 58be 0bd1 0d3e c48f 7fbd 01ab d1be
00000260: dbba 54be 69cc 5dbe 30c8 9abe 03ee 7abd
00000270: f0f8 013c ed70 cbbd 3f55 fbbd 80df 2abe
00000280: 3f84 6bbe 4e67 89bd 0d28 f6be bf0a ab3e
00000290: 486d 2ebe 8291 78bd eb2a c43d 99bb d5bc
000002a0: cd36 5e3d d690 e7bd f243 b5be c748 1e3e
000002b0: 3038 0ebe cfba ce3d 228a be3d d161 b8be
000002c0: bc17 eb3e 8b69 2abe 50b2 c2bd 0939 933d
000002d0: 2974 99bd 417f 96bc 7dcf 1d3e c68b babe
000002e0: 3b11 44be 8352 9fbd 3305 34be 2473 07bd
000002f0: cdbe bdbd 4d30 b7bd edcf 1bbe 743e 3f3d
00000300: c120 053e 4da8 96be 1ef8 b53d 7cf5 54be
00000310: d6eb 45be 95d1 3e3c 2b32 0e3e 3b27 323d
00000320: 2f69 a33b 02ed 6d3e a133 49be 4bd6 033e
00000330: f87c e5bc cafe a5bd db8d 9cbe a251 4ebe
00000340: af17 11bd fcf7 213e d7e0 0bbe 4352 d53c
00000350: 8191 60be 4b1d dbbe 39e4 c5be e345 28be
00000360: efc8 823e 5eed f63d 546c a23d 99e1 91bd
00000370: b8ff aebc 64d2 b5bd ef93 40be 2d9b 9ebb
00000380: 51d2 483e bf4d 58bd f856 b43d f4b2 553c
00000390: 9b86 c7bd 1825 353d 05e6 aabe b764 d4be
000003a0: 1196 adbe cd7d 39be 2c62 1cbe 9c6f 71be
000003b0: 0014 acbe 002e 423e c730 0b3e ddf2 59bd
000003c0: 2a0b 0c3e b1b9 993e 04de d7bd 16ca 8d3e
000003d0: 830c 52be 1869 123e 4a2b 2a3e 34a5 e43d
000003e0: ba29 73be b1e1 8ebd 5029 84bd 666c 70be
000003f0: 8e42 47be 66ed 02bd c084 c2be 22af f03c

b2 f4 [16]
-0.13666257 -0.015576404 -0.1175481 -0.017119743 -0.034262504 -0.02286689 -0.0816039 -0.0093114525
-0.03197339 -0.121864505 -0.06917447 0.049107824 -0.05461 -0.048868235 -0.1272174 -0.07109492
00000000: 46f1 0bbe 2c34 7fbc 0fbd f0bd b43e 8cbc
00000010: d756 0cbd 5853 bbbc f21f a7bd 108f 18bc
00000020: 88f6 02bd 1994 f9bd 58ab 8dbd 4925 493d
00000030: bcae 5fbd 0f2a 48bd 4745 02be 379a 91bd

W3 f4 [32, 16, 3, 3]
0.46347386 -0.21613052 -0.14577591 -0.021041524 -0.06385532 -0.12054432 0.117724076 0.074543096
-0.22811635 -0.005217329 0.21147934 -0.028972037 -0.09243696 -0.02803781 0.39262432 -0.38313165
-0.05054657 0.037137594 -0.2733734 0.079186186 0.15114826 0.0015533635 -0.35672647 0.14607981
0.19447707 -0.32907555 0.08009672 -0.14084686 0.1979403 -0.0786995 -0.28189734 0.39567724
0.2470658 -0.1275874 -0.0029886912 0.40604594 0.01915696 -0.20952637 -0.21213117 -0.09984992
-0.11917316 0.16230135 0.0804762 0.06761666 0.24734528 -0.1246447 0.15118904 -0.072084196
-0.09001184 0.12842807 0.19520688 -0.109034814 -0.31554115 0.37475076 0.00952558 0.22584727
0.46307954 -0.2351943 0.2674865 -0.060867462 0.34150654 0.46984622 0.14037074 0.16721404
-0.27912012 -0.1934006 -0.7947621 0.15580997 0.039927866 -0.18515275 0.018406762 -0.09683606
-0.16132921 0.15588193 -0.42266768 -0.062793076 0.17396308 0.18944299 -0.31144354 -0.0933034
0.45281568 -0.17602241 -0.05101973 0.34245038 -0.30407965 0.06698608 0.1837039 -0.34800106
0.19214092 -0.519835 0.3667779 -0.26328287 -0.06393094 -0.17167707 -0.06403501 -0.19863284
0.09348741 0.37521312 -0.35705984 -0.48796642 0.25815812 0.15669663 0.040531795 0.14742108
0.299276 -0.38180244 0.039347947 -0.36675897 0.09753396 -0.07617357 -0.004847188 0.0779122
-0.07254276 0.16516165 -0.007496728 0.40111524 0.1133039 -0.07795661 -0.035060637 -0.18299277
-0.021080133 0.08654863 0.4249766 0.21751256 0.47456756 0.18313782 0.25807586 -0.052614074
0.18170977 0.15917158 0.09989641 0.27092937 0.37208918 -0.13433544 0.13703713 -0.5019796
-0.32021296 0.27409145 0.17123821 -0.18392177 -0.2781215 0.110818975 0.2988587 0.23381364
-0.033298906 0.16451709 -0.5707601 -0.100749776 0.2423166 0.08967546 -0.026715081 0.2891172
-0.16232327 -0.08011387 0.018763613 -0.1448295 0.38346568 -0.08750194 0.3728731 -0.25405133
-0.09623966 -0.13237812 -0.16484518 0.26250964 -0.10373674 0.45909116 0.08100005 0.2972346
-0.094711535 0.18936959 0.16189773 0.31641087 0.05519865 -0.11261843 -0.14798288 -0.13214268
-0.093648925 0.37486356 -0.16874294 -0.20755918 0.017981578 -0.14591555 -0.408002 0.16493757
-0.19005741 -0.20266241 -0.05464687 -0.018616848 -0.1890164 0.028128931 -0.1716818 -0.035037693
-0.5569868 0.10357867 0.15787074 -0.18622634 0.04993165 0.46999252 0.19004697 0.06455551
-0.015455108 0.35972157 -0.0500362 -0.26124212 0.1523453 -0.25167856 0.074299216 0.13102698
-0.025714397 0.04757455 -0.16746919 0.07714519 -0.08608112 -0.11277726 -0.18305923 0.13634653
0.046975285 -0.24496017 0.16496794 0.06521694 -0.24882083 0.14119656 0.0461466 -0.0808125
0.10522608 -0.22124815 -0.08450366 0.030389266 0.5390043 0.06524564 0.20634986 0.04279257
0.13050555 -0.16482586 0.05843454 -0.042765386 0.025356123 -0.12407635 -0.12584047 0.2246011
0.17498991 0.33476996 -0.19940507 0.04345931 0.043432754 -0.03330766 0.12747401 0.29221147
0.18876876 -0.06224051 0.027637329 -0.19756907 -0.040454764 0.0233204 -0.0013538315 0.19145913
00000000: 724c ed3e 5251 5dbe 4846 15be 465f acbc
00000010: 94c6 82bd f1df f6bd 5219 f13d 0daa 983d
00000020: 5597 69be 21f6 aabb 0a8e 583e c456 edbc
00000030: 974f bdbd 8daf e5bc 0e06 c93e d529 c4be
00000040: ec09 4fbd 971d 183d 99f7 8bbe 5e2c a23d
00000050: 9cc6 1a3e 3b9a cb3a daa4 b6be f295 153e
00000060: ff24 473e 977c a8be c009 a43d 293a 10be
00000070: ddb0 4a3e 342d a1bd d954 90be 3596 ca3e
00000080: d1fe 7c3e 45a6 02be ebdd 43bb 41e5 cf3e
00000090: 0fef 9c3c 158e 56be ea38 59be 1d7e ccbd
000000a0: 0f11 f4bd 5332 263e b5d0 a43d 9a7a 8a3d
000000b0: 1548 7d3e b845 ffbd 4dd1 1a3e e1a0 93bd
000000c0: 2158 b8bd a682 033e 50e4 473e a54d dfbd
000000d0: 9c8e a1be 55df bf3e 2e11 1c3c 8244 673e
000000e0: c318 ed3e c6d6 70be fef3 883e 2950 79bd
000000f0: f2d9 ae3e af8f f03e 59bd 0f3e 283a 2b3e
00000100: d5e8 8ebe cf0a 46be 8775 4bbf a68c 1f3e
00000110: 678b 233d af98 3dbe c7c9 963c fc51 c6bd
00000120: 7c33 25be 839f 1f3e e667 d8be a899 80bd
00000130: 6123 323e 58fd 413e 8775 9fbe da15 bfbd
00000140: 75d7 e73e 383f 34be 10fa 50bd a855 af3e
00000150: 54b0 9bbe ff2f 893d e01c 3c3e 322d b2be
00000160: 97c0 443e e813 05bf 50ca bb3e 03cd 86be
00000170: 3aee 82bd 1dcc 2fbe ca24 83bd 6866 4bbe
00000180: 5476 bf3d ef1b c03e 8cd0 b6be bcd6 f9be
00000190: 4d2d 843e 1575 203e ab04 263d 8df5 163e
000001a0: b43a 993e 9c7b c3be 502b 213d d5c7 bbbe
000001b0: e3bf c73d e300 9cbd 29d5 9ebb 6e90 9f3d
000001c0: 4c91 94bd 2320 293e 1da7 f5bb fa5e cd3e
000001d0: e00b e83d b7a7 9fbd be9b 0fbd 7562 3bbe
000001e0: 3eb0 acbc 6840 b13d 8896 d93e 9dbb 5e3e
000001f0: 85fa f23e 7b88 3b3e 8522 843e db81 57bd
00000200: 2012 3a3e e0fd 223e 7d96 cc3d 41b7 8a3e
00000210: 7982 be3e 3b8f 09be 7653 0c3e bc81 00bf
00000220: f4f2 a3be b755 8c3e 1259 2f3e fd55 3cbe
00000230: f165 8ebe 0ff5 e23d 0204 993e d86c 6f3e
00000240: 6f64 08bd 2b77 283e 551d 12bf e655 cebd
00000250: d821 783e c4a7 b73d 96d9 dabc 2b07 943e
00000260: 1238 26be be12 a4bd 26b6 993c 2f4e 14be
00000270: 9d55 c43e 3834 b3bd 39e9 be3e 0413 82be
00000280: 4d19 c5bd 218e 07be 2dcd 28be aa67 863e
00000290: ee73 d4bd ff0d eb3e 5be3 a53d 222f 983e
000002a0: 1ff8 c1bd 1aea 413e 85c8 253e 9b00 a23e
000002b0: fb17 623d 7ea4 e6bd d388 17be 6950 07be
000002c0: 02cb bfbd 1eee bf3e f3ca 2cbe 658a 54be
000002d0: 1a4e 933c e36a 15be a3e5 d0be 65e5 283e
000002e0: 699e 42be bc86 4fbe 65d5 5fbd 5c82 98bc
000002f0: 848d 41be a56e e63c 5bcd 2fbe af83 0fbd
00000300: b096 0ebf 0e21 d43d dea8 213e 1eb2 3ebe
00000310: 2185 4c3d dca2 f03e ac9b 423e ae35 843d
00000320: 6c37 7dbc 6d2d b83e c2f2 4cbd 87c1 85be
00000330: 6800 1c3e 03dc 80be 302a 983d f02b 063e
00000340: 00a7 d2bc 88dd 423d 0b7d 2bbe 4cfe 9d3d
00000350: 4c4b b0bd c4f7 e6bd e173 3bbe 6d9e 0b3e
00000360: 2869 403d d7d6 7abe 5bed 283e 7690 853d
00000370: e3ca 7ebe d595 103e 3804 3d3d 0681 a5bd
00000380: c580 d73d e08e 62be 4110 adbd e9f2 f83c
00000390: 30fc 093f 829f 853d 614d 533e 4347 2f3d
000003a0: 3fa3 053e 1cc8 28be 0e59 6f3d c22a 2fbd
000003b0: a5b7 cf3c be1b febd 53dc 00be d5fd 653e
000003c0: 8e30 333e f866 ab3e d830 4cbe 6402 323d
000003d0: 8be6 313d 9d6d 08bd 8c88 023e be9c 953e
000003e0: 994c 413e e8ef 7ebd ae67 e23c 8c4f 4abe
000003f0: e5b3 25bd 6c0a bf3c 0c73 b1ba dd0d 443e

b3 f4 [32]
-0.09375459 -0.001617223 -0.03260072 -0.0850117 -0.0658834 0.046114266 -0.08320394 -0.009803572
-0.029259728 0.07549269 -0.07505949 -0.056486007 0.035042766 -0.04813615 0.02909363 0.01704505
-0.13181058 0.124776945 -0.13148136 -0.09981156 -0.004866376 -0.093594484 0.07862629 -0.08008496
0.025504934 -0.07800669 -0.057229526 0.14712535 0.051683933 -0.06743332 0.09732264 -0.045770023
00000000: 6802 c0bd 00f9 d3ba 5588 05bd 9d1a aebd
00000010: e0ed 86bd 50e2 3c3d d466 aabd 299f 20bc
00000020: 19b2 efbc e99b 9a3d cab8 99bd df5d 67bd
00000030: 0189 0f3d 692a 45bd c455 ee3c 10a2 8b3c
00000040: 5af9 06be 0e8b ff3d 0da3 06be 016a ccbd
00000050: 1f76 9fbb 77ae bfbd d206 a13d 9503 a4bd
00000060: b9ef d03c f9c1 9fbd 8269 6abd 07a8 163e
00000070: 88b2 533d 7b1a 8abd 1851 c73d 5979 3bbd

W4 f4 [64, 32, 3, 3]
0.07147775 -0.3391405 -0.2207658 0.022821678 -0.07634804 0.18591966 -0.047080662 0.13402008
0.055498347 -0.002810034 -0.23013932 0.1104464 -0.05750661 0.16546097 -0.15545806 0.131794
0.18354385 0.25334048 -0.15313481 -0.23759875 0.36078954 0.14706568 0.30363604 0.21910113
-0.26938352 0.2704748 -0.37851667 0.049814 0.056322128 0.00497583 0.0022387102 0.204397
-0.11661226 0.051954515 0.31997174 0.003216363 -0.0074336054 -0.40821904 -0.17225854 -0.0477349
-0.04501902 0.21117444 -0.14753285 -0.20500836 -0.2971045 0.079812504 -0.29235342 -0.34953433
0.25173572 0.33279514 0.20553425 0.19891705 0.47373813 -0.72993875 0.08293829 0.0025121756
-0.15843612 -0.29229787 -0.041768737 0.688787 0.05613987 0.18134202 -0.18477182 0.18547092
0.48616838 0.15515107 -0.14146791 -0.32981634 0.14024994 0.08820505 -0.2602268 -0.10700688
0.063242644 -0.17606603 -0.11600932 0.050575517 0.21339566 0.26993215 0.04696913 0.49518973
0.19833128 0.23863599 0.07506196 0.13357313 0.08506185 0.38124752 0.10453395 0.1698557
0.01647203 -0.020416038 -0.12170067 0.056464046 -0.08389689 0.14091177 0.21474239 0.24719812
-0.2644636 0.25404945 -0.053112537 -0.012329569 0.05663741 -2.8324788e-05 0.28191918 0.123847514
-0.051110383 0.00011957593 0.03972464 0.11213154 0.07964362 0.34484765 0.10341765 0.24652132
0.33394542 0.07988484 0.04126257 0.13790855 0.40645856 0.41769904 0.16423915 0.28982258
-0.07741847 -0.19515899 0.09484173 0.14931077 -0.013598598 0.2675957 0.047030132 -0.13851441
-0.16051705 0.047471374 0.16697267 0.16176382 -0.04714399 0.2183493 0.059548452 0.31437007
0.12550099 0.1595581 0.2585504 -0.01783472 -0.23107906 0.2821075 -0.117918596 0.36697114
0.5232633 -0.41859367 -0.13932678 -0.36110073 0.38309547 -0.032589182 -0.08985101 0.22310446
-0.45486808 0.27827957 -0.06970692 -0.3987245 0.28665477 -0.3096366 0.373908 -0.2380509
-0.35161468 0.43932772 -0.22802158 0.015054836 -0.26096514 -0.09667464 -0.1072496 0.15609045
-0.1683896 0.11732835 0.22963373 -0.110797666 0.11526205 -0.10736033 0.15047453 -0.1442078
-0.011009354 -0.30419177 0.021645147 -0.018143889 0.012958079 -0.00090942124 -0.10237344 0.24573004
-0.12249579 -0.3497718 0.05051481 -0.018912429 0.3507471 -0.21288538 -0.26191676 -0.3654916
-0.1310922 -0.15656371 -0.118472345 0.10525682 0.032204002 -0.030098235 -0.009972842 -0.105161935
0.09827148 -0.2606274 0.06963708 -0.2592824 0.28835574 0.12806888 0.44705045 0.046812613
0.38602602 -4.293718e-06 -0.37161395 -0.026125107 -0.00073892577 0.07157409 0.049878094 0.01847016
-0.2906506 -0.27753538 -0.19272658 -0.0662113 0.3661969 -0.008477048 0.11675106 -0.011304988
-0.02674458 -0.04547346 -0.07174918 -0.04680862 0.24275325 -0.26201674 0.03775321 0.124139465
-0.01664324 -0.05287879 0.11119396 -0.08483711 0.2689717 -0.25346282 -0.03036112 0.089400515
0.19535832 0.17381331 -0.077626064 0.207222 -0.28485495 0.2520172 -0.01879397 0.068400964
0.3345926 -0.27091458 -0.13720919 -0.18123585 -0.17420894 0.0808644 -0.36795357 -0.060774893
00000000: ed62 923d d3a3 adbe 6e10 62be 87f4 ba3c
00000010: 5c5c 9cbd b961 3e3e a7d7 40bd 8f3c 093e
00000020: 3c52 633d 8c28 38bb a4a9 6bbe b931 e23d
00000030: 0d8c 6bbd 9a6e 293e 6630 1fbe 02f5 063e
00000040: ebf2 3b3e d8b5 813e 5fcf 1cbe 164d 73be
00000050: 68b9 b83e 6398 163e 2f76 9b3e 0c5c 603e
00000060: a3ec 89be ac7b 8a3e f0cc c1be c409 4c3d
00000070: 08b2 663d 4a0c a33b 53b7 123b 724d 513e
00000080: 69d2 eebd 42ce 543d 56d3 a33e 9ec9 523b
00000090: 9a95 f3bb 1602 d1be 8b64 30be ac85 43bd
000000a0: dd65 38bd 1d3e 583e da12 17be b6ed 51be
000000b0: 151e 98be bd74 a33d 59af 95be 2af6 b2be
000000c0: 81e3 803e 2064 aa3e 9277 523e e9b0 4b3e
000000d0: ce8d f23e 44dd 3abf 8ddb a93d 50a3 243b
000000e0: 143d 22be 11a8 95be b215 2bbd 5854 303f
000000f0: ecf2 653d b9b1 393e d334 3dbe 17ec 3d3e
00000100: 10eb f83e ecdf 1e3e f7dc 10be b0dd a8be
00000110: ae9d 0f3e d9a4 b43d 723c 85be 6c26 dbbd
00000120: 5c85 813d a74a 34be 4b96 edbd 4628 4f3d
00000130: 6484 5a3e 8c34 8a3e b462 403d 8289 fd3e
00000140: 5b17 4b3e fe5c 743e 16ba 993d 65c7 083e
00000150: e834 ae3d e032 c33e e515 d63d a7ee 2d3e
00000160: 5af0 863c 893f a7bc 333e f9bd d846 673d
00000170: 22d2 abbd 2d4b 103e 6ee5 5b3e 8121 7d3e
00000180: c667 87be c512 823e 888c 59bd f601 4abc
00000190: a1fc 673d 059b edb7 b657 903e c4a3 fd3d
000001a0: 1f59 51bd d7c4 fa38 4eb6 223d 39a5 e53d
000001b0: 321c a33d df8f b03e a2cc d33d 1670 7c3e
000001c0: e5fa aa3e aa9a a33d f102 293d e637 0d3e
000001d0: 561b d03e a6dc d53e 4f2e 283e a063 943e
000001e0: 938d 9ebd c2d7 47be 623c c23d ece4 183e
000001f0: a7cc 5ebc 4e02 893e aba2 403d b9d6 0dbe
00000200: 955e 24be 5871 423d e2fa 2a3e 6aa5 253e
00000210: 0e1a 41bd f596 5f3e 14e9 733d 1df5 a03e
00000220: 5583 003e 3363 233e b860 843e 1e1a 92bc
00000230: fd9f 6cbe 6570 903e 4e7f f1bd a4e3 bb3e
00000240: 95f4 053f e951 d6be aeab 0ebe 32e2 b8be
00000250: 1725 c43e 3c7c 05bd ce03 b8bd 7f75 643e
00000260: 78e4 e8be a97a 8e3e 80c2 8ebd 9e25 ccbe
00000270: 6ac4 923e b088 9ebe df70 bf3e 9dc3 73be
00000280: d706 b4be 90ef e03e 7d7e 69be 8fa8 763c
00000290: 399d 85be 5bfd c5bd aea5 dbbd 2dd6 1f3e
000002a0: 536e 2cbe d949 f03d 1b25 6b3e e3e9 e2bd
000002b0: 820e ec3d bcdf dbbd ff15 1a3e 36ab 13be
000002c0: 9460 34bc 06bf 9bbe 2a51 b13c 7ea2 94bc
000002d0: 1f4e 543c 3a66 6eba 2ba9 d1bd a8a0 7b3e
000002e0: 13df fabd 4a15 b3be 9ee8 4e3d 3dee 9abc
000002f0: 2095 b33e a0fe 59be f419 86be b721 bbbe
00000300: 093d 06be 3d52 20be a1a1 f2bd e390 d73d
00000310: 58e8 033d 9390 f6bc 2265 23bc 245f d7bd
00000320: 8f42 c93d f470 85be e39d 8e3d aac0 84be
00000330: 5da3 933e 7d24 033e cce3 e43e 95be 3f3d
00000340: 34a5 c53e c212 90b6 2f44 bebe 5204 d6bc
00000350: 78b4 41ba 7095 923d f94c 4c3d bc4e 973c
00000360: 28d0 94be 1e19 8ebe 1e5a 45be ca99 87bd
00000370: 297e bb3e 51e3 0abc 2e1b ef3d 8e38 39bc
00000380: 7317 dbbc 6142 3abd 3cf1 92bd 65ba 3fbd
00000390: 4f94 783e 0f27 86be 1ca3 1a3d d53c fe3d
000003a0: 6757 88bc 6e97 58bd a9b9 e33d 14bf adbd
000003b0: a9b6 893e e1c5 81be e2b7 f8bc 9e17 b73d
000003c0: 030c 483e 1efc 313e 6afa 9ebd 0132 543e
000003d0: 82d8 91be 6608 813e d0f5 99bc ce15 8c3d
000003e0: b94f ab3e 51b5 8abe 9180 0cbe e495 39be
000003f0: d463 32be 3c9c a53d 6964 bcbe 18ef 78bd

b4 f4 [64]
-0.049950074 -0.04237474 0.045231774 0.006632833 -0.12038651 0.0423628 0.052103046 0.044487275
-0.034850627 -0.09867161 -0.08591928 -0.057939302 0.06770877 -0.12268 -0.07742069 0.048231192
-0.05408069 -0.11006863 -0.021822147 0.012127718 0.015416055 -0.14344534 -0.0679883 0.028056365
-0.084230244 -0.070800915 -0.038979538 -0.006642495 -0.092617735 -0.017370496 -0.08035051 -0.15310112
-0.004816426 -0.0486577 -0.040592033 -0.09925103 -0.11374704 0.051723957 0.09811682 0.04628737
0.0711577 -0.025694843 -0.0975387 0.13716117 0.1576931 -0.054148436 -0.09915876 -0.15226728
0.06748556 -0.008977127 -0.12899926 0.015895637 -0.03869198 0.06447247 -0.13898394 -0.0069127926
-0.01429726 0.079013966 0.085884005 2.1226326e-05 0.02127095 -0.11765142 -0.07134012 -0.028492317
00000000: 7398 4cbd 2391 2dbd f444 393d 3c58 d93b
00000010: 348d f6bd 9e84 2d3d 016a 553d 4a38 363d
00000020: 88bf 0ebd 5714 cabd 73f6 afbd c351 6dbd
00000030: e5aa 8a3d a73f fbbd bd8e 9ebd 128e 453d
00000040: b783 5dbd a96b e1bd 5cc4 b2bc 56b3 463c
00000050: 9f93 7c3c 56e3 12be 733d 8bbd 76d6 e53c
00000060: e880 acbd 1200 91bd 02a9 1fbd 49a9 d9bb
00000070: 5eae bdbd 924c 8ebc cf8e a4bd 8ac6 1cbe
00000080: 1cd3 9dbb 4c4d 47bd d543 26bd 2044 cbbd
00000090: 35f4 e8bd 80dc 533d 79f1 c83d d397 3d3d
000000a0: 21bb 913d fe7d d2bc 5fc2 c7bd fa73 0c3e
000000b0: 4d7a 213e c0ca 5dbd bf13 cbbd f4eb 1bbe
000000c0: df35 8a3d cd14 13bc 6218 04be 9137 823c
000000d0: 7b7b 1ebd 240a 843d ce51 0ebe b584 e2bb
000000e0: 0e3f 6abc 13d2 a13d f4e3 af3d 300f b237
000000f0: 6a40 ae3c 3af3 f0bd c51a 92bd b868 e9bc

W5 f4 [256, 10]
-0.06643787 0.1493 0.27700022 -0.0440085 -0.02782837 -0.19441213 0.0470612 0.15886159
-0.08679662 0.3407701 0.06853336 -0.025735008 -0.30075905 0.03094483 0.2641934 0.205649
0.033045474 0.36052683 0.0105722025 0.23576196 0.5027279 -0.27660668 -0.28283262 -0.21523234
0.089930706 -0.009366059 -0.15505733 0.04514677 -0.09755451 0.20580547 0.0022714005 -0.014086521
0.188622 -0.057869498 -0.19711734 0.023058284 -0.08150384 -0.49423212 0.11702429 0.21396302
-0.10417056 0.079991594 0.22732332 -0.25311977 0.050504223 0.34788352 -0.14310114 0.3101325
0.0035063354 0.38330472 -0.033153035 0.12673189 -0.07327376 0.2016428 -0.16930272 -0.027876886
0.18452223 0.31478292 -0.25816822 -0.20026794 -0.03937496 0.25619718 0.53297555 -0.006999479
0.038418178 -0.06070125 -0.2306633 0.18220699 0.22043101 -0.06972128 0.07129112 -0.13528052
0.5613607 -0.12665528 0.01976208 0.15873823 0.066138685 0.1897489 -0.5265326 -0.027032217
-0.2825472 0.05755182 0.14397596 0.12057925 -0.2002249 0.07299008 0.12124178 0.2765828
0.03050626 -0.21801075 -0.3383661 -0.08037076 -0.16711794 0.34478295 0.18892938 -0.016949324
0.16219759 -0.32375914 0.07363228 -0.15053606 0.09143144 0.12419465 0.16184364 0.07758413
-0.26440972 -0.18651395 0.07194259 0.075589105 -0.20050065 0.13063185 -0.0027275956 -0.108833
-0.02066959 -0.025131028 0.3544386 -0.368817 0.25327197 -0.069885835 -0.16051722 0.0127704395
0.1110148 0.18638383 0.1635037 -0.072251506 0.09949867 -0.058430575 -0.26523694 0.12975919
-0.040226165 0.057694953 -0.18885636 -0.49796563 0.35713172 0.10495823 0.024129692 -0.024706192
0.05454321 0.22525023 -0.4721029 0.4715293 0.18809216 -0.09196644 -0.0090043675 -0.004099096
0.39613572 0.1416338 0.043302517 0.0054491563 0.06262265 0.26303032 -0.05154119 0.15521729
-0.37150928 0.040009502 0.119141825 -0.1013473 0.14440076 -0.035866186 -0.3825493 -0.27602124
0.0022450043 -0.1948959 -0.0052742674 -0.062486943 0.2644888 0.42209873 -0.053184118 -0.18060505
-0.36016273 0.39217734 -0.07133862 0.21286607 0.03263244 -0.006828577 -0.1650534 -0.026778532
0.08907709 0.05977584 0.02433737 0.028961075 0.11662283 -0.120344885 -0.009652558 0.48761803
-0.13143612 0.30834717 -0.14775409 -0.16115169 0.18875964 0.13050255 0.01004105 -0.4121861
0.0010106531 0.17479937 -0.04548605 0.16438131 -0.16966738 -0.044413134 0.54424894 -0.04900339
0.08256563 -0.018557208 0.3043944 0.0017048119 -0.0027915516 0.23284477 0.103104904 0.12980688
-0.043371875 0.0038905565 0.0030689873 -0.06636045 0.55082023 0.09297011 -0.11985402 -0.17954484
-0.2731069 -0.044956967 -0.16624053 -0.014234384 -0.057877235 0.020571146 0.41280958 -0.16327634
0.1790763 0.18698262 0.1842884 0.14674665 -0.2324372 -0.24379162 -0.010107504 -0.18449199
-0.30005893 0.010430786 -0.24820529 -0.38464853 0.38205752 -0.1271439 0.39943132 0.4160957
0.08935846 0.18579422 0.04034304 -0.16709277 0.043660097 -0.43159008 0.017612115 -0.106544524
-0.09183975 -0.30310154 0.013452744 0.10129098 -0.23255876 -0.19759451 0.17881027 0.09107416
00000000: 9410 88bd 19e2 183e f9d2 8d3e 4242 34bd
00000010: 52f8 e3bc f913 47be 3fc3 403d 9dac 223e
00000020: 6dc2 b1bd 6b79 ae3e 385b 8c3d 39d2 d2bc
00000030: 17fd 99be 0380 fd3c 5b44 873e a795 523e
00000040: b15a 073d f996 b83e 0837 2d3c 956b 713e
00000050: c7b2 003f 649f 8dbe 70cf 90be de65 5cbe
00000060: 972d b83d 1974 19bc 59c7 1ebe d2eb 383d
00000070: a9ca c7bd abbe 523e c7db 143b 27cb 66bc
00000080: 2026 413e 9108 6dbd 21d9 49be bae4 bc3c
00000090: 7ceb a6bd fe0b fdbe 6eaa ef3d 1f19 5b3e
000000a0: 6057 d5bd a2d2 a33d 72c7 683e ea98 81be
000000b0: 84dd 4e3d ca1d b23e 1b89 12be b0c9 9e3e
000000c0: 8cca 653b 8440 c43e 7acb 07bd 01c6 013e
000000d0: 8e10 96bd 737b 4e3e b15d 2dbe 115e e4bc
000000e0: 65f3 3c3e 3a2b a13e a02e 84be 0a13 4dbe
000000f0: a347 21bd 472c 833e 1671 083f e35b e5bb
00000100: 615c 1d3d e0a1 78bd 0033 6cbe 7894 3a3e
00000110: abb8 613e 08ca 8ebd 1401 923d fa86 0abe
00000120: 56b5 0f3f ecb1 01be 16e4 a13c 468c 223e
00000130: b873 873d 894d 423e d7ca 06bf ab72 ddbc
00000140: 07aa 90be 75bb 6b3d 6f6e 133e 41f2 f63d
00000150: c207 4dbe d37b 953d 9c4d f83d 439c 8d3e
00000160: 44e8 f93c 363e 5fbe 523e adbe 6d99 a4bd
00000170: f720 2bbe 6487 b03e b476 413e 4fd9 8abc
00000180: 2017 263e c2c3 a5be 85cc 963d 2026 1abe
00000190: 6840 bb3d c459 fe3d 57ba 253e 6ee4 9e3d
000001a0: b660 87be 83fd 3ebe a356 933d 76ce 9a3d
000001b0: 0b50 4dbe 5bc4 053e 76c1 32bb d6e3 debd
000001c0: 4653 a9bc 96df cdbc fa78 b53e 95d5 bcbe
000001d0: ddac 813e 4e20 8fbd a05e 24be 1b3b 513c
000001e0: ba5b e33d 67db 3e3e 846d 273e 99f8 93bd
000001f0: f5c5 cb3d e654 6fbd 23cd 87be 98df 043e
00000200: 31c4 24bd 8b51 6c3d 9063 41be 5af5 febe
00000210: f8d9 b63e 57f4 d63d a2ab c53c a464 cabc
00000220: b368 5f3d ffa7 663e 79b7 f1be 4a6c f13e
00000230: 3b9b 403e e758 bcbd 0e87 13bc b651 86bb
00000240: 4dd2 ca3e 7308 113e fb5d 313d d68e b23b
00000250: 4e40 803d e9ab 863e db1c 53bd 48f1 1e3e
00000260: 7736 bebe 01e1 233d a100 f43d 2c8f cfbd
00000270: cbdd 133e 6ce8 12bd 80dd c3be a852 8dbe
00000280: ec20 133b ca92 47be c3d3 acbb 4ff2 7fbd
00000290: 136b 873e 531d d83e 97d7 59bd 88f0 38be
000002a0: 4067 b8be 78cb c83e fb19 92bd 90f9 593e
000002b0: 98a9 053d 41c2 dfbb c203 29be a75e dbbc
000002c0: 0d6e b63d 83d7 743d 2a5f c73c c73f ed3c
000002d0: f3d7 ee3d 6177 f6bd c325 1ebc 12a9 f93e
000002e0: 3197 06be aedf 9d3e d94c 17be f304 25be
000002f0: 354a 413e 76a2 053e 3783 243c 0e0a d3be
00000300: e477 843a 9bfe 323e 954f 3abd 9353 283e
00000310: 49bd 2dbe 8cea 35bd e653 0b3f c7b7 48bd
00000320: 2b18 a93d 4905 98bc 95d9 9b3e ff73 df3a
00000330: 77f2 36bb dc6e 6e3e aa28 d33d 18ec 043e
00000340: b5a6 31bd b5f8 7e3b 1021 493b fde7 87bd
00000350: 8e02 0d3f 1d67 be3d 0676 f5bd 9ada 37be
00000360: abd4 8bbe cc24 38bd f53a 2abe 5537 69bc
00000370: ae10 6dbd d284 a83c c75b d33e ea31 27be
00000380: c75f 373e 5f78 3f3e 19b6 3c3e c144 163e
00000390: 0404 6ebe 83a4 79be f299 25bc 78eb 3cbe
000003a0: 53a1 99be e3e5 2a3c 8729 7ebe a7f0 c4be
000003b0: 0b9d c33e 0332 02be 4382 cc3e 7f0a d53e
000003c0: 9101 b73d d740 3e3e be3e 253d 5e1a 2bbe
000003d0: eed4 323d 60f9 dcbe 4847 903c 0434 dabd
000003e0: 7b16 bcbd 2030 9bbe e668 5c3c a571 cf3d
000003f0: e223 6ebe 3756 4abe 0a1a 373e 1785 ba3d

b5 f4 [10]
-0.028598951 -0.06799929 0.040638354 0.050475847 0.1307433 -0.09501882 0.056558285 0.030016026
-0.014179605 -0.07160143
00000000: 5948 eabc 3643 8bbd 6774 263d c3bf 4e3d
00000010: 92e1 053e 3a99 c2bd a9a9 673d 2be4 f53c
00000020: 9351 68bc c5a3 92bd
